user_data/optimization_guide_model_store/65/A3BFD4A403A877EC/136BD2747B589D62/model.tflite (tflite, 521132 bytes, 17 tensors)

arith.constant f4 [24]
000000 42 36 e3 bd 53 ca 1d 3d b0 22 62 bd ec 7d c8 bc
       -0.11094333 0.03852303 -0.05520886 -0.024474107
000010 e7 c5 85 bb 7f 46 46 bd 4f ef 5d bd 22 5f 87 bd
       -0.0040824297 -0.048407074 -0.0541833 -0.06609942
000020 57 75 18 3c 19 e9 f5 3c 2b 29 3d bc f4 6e a9 bd
       0.00930532 0.030018376 -0.01154546 -0.08273116
000030 4a 23 c8 bd 35 3e 33 bd c5 46 a0 bb 7b 9d f7 bd
       -0.09772356 -0.043760497 -0.004891249 -0.12090584
000040 e6 e3 f5 bd c9 17 d4 bb 92 c9 72 bd 26 58 02 be
       -0.12006359 -0.006472562 -0.059274264 -0.12728938
000050 1e e2 b7 bd b1 54 1e be 83 d6 ae bc ea 74 83 bd
       -0.08978675 -0.15461995 -0.021342522 -0.06418784

arith.constant1 f4 [8]
000000 e1 88 cf bd b3 4c 36 bd 08 a3 b0 bc c2 91 29 bd
       -0.101335295 -0.04450674 -0.021562114 -0.04139877
000010 78 92 82 bc 47 b8 17 bd b2 bc 4a bc d3 63 9d 3c
       -0.015938982 -0.037040975 -0.01237409 0.019212639

arith.constant2 f4 [24, 3, 3, 8]
000000 2b c4 c3 bc 2f 8a 40 3d 64 de 14 ba b0 e8 ad 3a
       -0.023897251 0.047006782 -0.0005678891 0.0013268199
000010 66 d2 23 bb ce 11 fe ba 1c 0b ec 3a 48 6c 1f 3b
       -0.0024997233 -0.0019383968 0.0018008682 0.0024326015
000020 62 52 7b bb 1c 89 b6 bc 79 4b ef b9 66 d1 eb 3a
       -0.0038348665 -0.022282176 -0.00045641864 0.0017991483
000030 b6 ed 10 bc a6 dd 57 bd 46 24 34 bd 9b e2 07 3b
       -0.008845737 -0.052701615 -0.043979906 0.0020734433
000040 c1 dc e7 bc 0c 59 1c bd 3e 9f 05 3a d6 2f 0a bd
       -0.028303506 -0.03817086 0.00050972763 -0.033737026
000050 32 68 a8 3a 81 68 9b bc ef 4a 23 bb 37 17 83 3d
       0.0012848435 -0.01897073 -0.002491649 0.06400912
000060 85 05 36 bd ba 99 cd ba 26 5f e4 3a 0c 75 56 bd
       -0.044438858 -0.0015686073 0.0017423376 -0.05235772
000070 bf 20 c8 bb a0 28 b1 bd 96 4d de bb 10 3a 69 3d
       -0.0061074193 -0.08650327 -0.0067841513 0.05694014
000080 d0 d0 5e bb 6d 20 13 3d 00 9b ba 3a d4 72 8d 3b
       -0.0033998974 0.035919596 0.0014236867 0.004316667
000090 a7 64 63 3d 7f 49 3c 3c 53 d7 1b 3c fb 74 c8 3d
       0.05551591 0.011492132 0.0095117865 0.09787937
0000a0 82 79 6b bb be 97 d1 bc c7 3b 91 3d 36 79 11 3b
       -0.0035930579 -0.025585052 0.0709148 0.0022197491
0000b0 1f b4 21 bb c1 b0 da bb d7 f9 cc bb a5 75 e0 3a
       -0.002467401 -0.0066739027 -0.006255369 0.0017124905
0000c0 67 7d b5 bb 7a ae 47 bc 24 7d 66 3d 1b e4 1e bb
       -0.0055386308 -0.012187595 0.056271687 -0.0024244848
0000d0 e1 a4 b7 ba 97 67 48 bd db b4 18 bb 8b 36 ca 3a
       -0.001401093 -0.048926916 -0.0023301158 0.0015427632
0000e0 89 61 83 bc af 1b 40 bd ee 3b 9f 3a f9 f9 50 3c
       -0.01603772 -0.0469014 0.0012148598 0.012754911
0000f0 aa 8a c8 ba e6 19 86 bd f2 94 85 bc 30 c7 81 bb
       -0.0015300114 -0.065479085 -0.016306374 -0.0039605126
000100 0c bb c9 ba c5 02 77 ba 53 ec 17 3d 5d 1a db ba
       -0.0015390827 -0.0009422715 0.03709061 -0.0016716231
000110 62 8c ae 39 87 fd 91 bd 00 c0 1d bd 43 79 9d 3b
       0.0003329246 -0.07128435 -0.038513184 0.0048057153
000120 51 e1 77 bc 4e f9 91 38 63 f3 d3 3c ab ff a3 39
       -0.015129403 6.9605754e-05 0.025872892 0.0003128027
000130 4c 05 3e bb 6f 31 02 bc c9 ca 0a bd 38 05 fe bb
       -0.0028994856 -0.007946356 -0.033884797 -0.007752087
000140 96 d3 35 bc 38 06 86 ba 80 96 3f 3d 6d 04 a0 bb
       -0.011097809 -0.0010225242 0.046774387 -0.00488334
000150 95 aa d9 bb 8f cc 88 bc 5a f1 29 3c fe 1f 39 3c
       -0.0066426494 -0.016699104 0.010372484 0.011299131
000160 d9 d0 2c bc 55 81 db b8 11 08 95 bb 11 65 a5 3c
       -0.01054784 -0.00010466824 -0.0045480807 0.020189794
000170 9d 61 7a bb cb a9 a5 bc 19 6f 9b bc b5 f0 1a ba
       -0.0038205155 -0.020222565 -0.018973874 -0.0005910502
000180 4a fe 98 bc d6 9f a1 bb de 08 0c bc 15 01 6a bb
       -0.018675942 -0.004932384 -0.008547036 -0.0035706211
000190 5e a2 97 bc b2 f6 ff bc 91 ec 4d bc 38 87 9d bb
       -0.01851004 -0.031245563 -0.012568609 -0.004807379
0001a0 92 33 50 bd 9c ff 39 3b b5 6c 9f 3b 85 9e e9 3c
       -0.05083043 0.0028381115 0.004865254 0.02851797
0001b0 0c 57 2a bc d8 69 1f bc 46 68 89 ba df 15 22 3c
       -0.01039673 -0.009729825 -0.0010483346 0.00989291
0001c0 c9 a7 54 bc 37 59 8c 3b fc cc fa 3a 7a 9b a5 3b
       -0.012979456 0.004283096 0.0019134576 0.0050539346
0001d0 e3 7c be bc d2 9e 2c bc 90 d2 80 3b 63 f9 93 3b
       -0.02325291 -0.010535913 0.003931351 0.004515813
0001e0 bb 3a aa bc 40 01 80 bb 5e 3f 65 bb 71 08 e8 bc
       -0.020779958 -0.003906399 -0.0034980397 -0.028324338
0001f0 3a 5f 26 bb 7b 48 d5 bb 96 d7 15 bd b2 32 17 3c
       -0.002538635 -0.0065088845 -0.036582552 0.009228395
000200 13 ed 5f bb cc d5 1e 3d 3d a7 61 3b c2 dc e8 39
       -0.0034168407 0.03877811 0.0034431957 0.00044414966
000210 9e de 8b 3d 84 84 00 3c c6 d2 24 bb 34 e7 ac 3b
       0.0682957 0.007844094 -0.0025150045 0.005276585
000220 65 34 10 bc a9 f5 84 bb 87 9b 5d 3c e1 49 74 3a
       -0.008801554 -0.0040576053 0.01352585 0.000931887
000230 73 ba 05 39 d5 75 46 bb d6 1b 53 ba e0 25 a2 bb
       0.00012753326 -0.0030282636 -0.0008053159 -0.0049483627
000240 b2 a9 64 3a 0b 4e 37 bb bc 43 b4 3a 8c 05 d1 bb
       0.00087227963 -0.0027970101 0.0013753097 -0.006378835
000250 9e ce 66 bb e5 0c 8c 3b e7 19 03 3c 5f c7 3e 3c
       -0.0035218368 0.004273998 0.008001781 0.011644213
000260 7c 8b f7 3c 41 7c fe bb e8 b3 8d bb 05 d8 7c bc
       0.030217879 -0.007766277 -0.004324425 -0.015432362
000270 dc 42 4a bc d0 ea bb b9 08 26 09 3c 77 b1 a9 bb
       -0.012345042 -0.00035842368 0.008370884 -0.005178626
000280 b6 33 0e bb 4f fc 98 3c 17 e4 42 bc 57 d0 43 bc
       -0.0021698303 0.018674998 -0.011895201 -0.011951528
000290 53 06 c9 bb 81 7b a0 bb 21 0a be 3b f1 9e 47 ba
       -0.006134787 -0.0048975353 0.0057995473 -0.00076149317
0002a0 ed 59 a2 3c a4 b0 1e 3c b2 43 f6 bb f4 9c a9 bb
       0.01981827 0.009685669 -0.007515394 -0.005176181
0002b0 b7 03 ee 3c 6f d8 17 ba 5c 37 81 3c 51 43 4b 3a
       0.029054506 -0.0005792444 0.015773468 0.00077538664
0002c0 1a 1b 0c ba 65 b6 80 3c 2e ec 66 bb c3 fa 0f bc
       -0.00053446146 0.015711972 -0.003523599 -0.008787814
0002d0 9a de 6d 3c 6e c5 26 ba 34 f7 26 3a d1 86 59 bb
       0.014518404 -0.0006361817 0.00063692336 -0.003319193
0002e0 e5 99 51 3c ba 67 7a 3c bc e5 ef bb b2 17 ef 3a
       0.012793039 0.015283519 -0.0073210876 0.0018241315
0002f0 f1 21 b3 3b f7 c1 15 bb 18 59 4d bb df 2d d6 3b
       0.0054666926 -0.0022851208 -0.0031333622 0.00653623
000300 c6 6e 17 bb 1a 77 88 3b d8 f5 f0 ba 92 24 e9 3b
       -0.0023106798 0.0041645886 -0.0018383814 0.007114955
000310 e9 9c 9f bb 74 a1 42 bb cb 2d de 3c 29 9a 31 bb
       -0.004871 -0.0029698284 0.027121445 -0.0027099943
000320 43 61 2c bc 2a 40 2c 3d 78 1d 2b bb 99 31 3b 3d
       -0.010521236 0.04205338 -0.0026110094 0.045701597
000330 bc fb 6b bb f4 50 1e bc 67 a5 27 3c b2 71 b7 bb
       -0.00360082 -0.009662855 0.010232306 -0.0055982703
000340 88 6b 99 bb 63 cd 8a 3d 03 00 3b ba 6f 8c 61 3b
       -0.004682008 0.06777456 -0.00071334856 0.003441598
000350 a5 c2 2d bc 61 13 17 bc 00 a5 bd 3b 58 47 3d bd
       -0.010605489 -0.009220929 0.005787492 -0.046210617
000360 fd 1a fc 3a 7b 99 69 3a d5 8d ac 3b b2 b5 ab bb
       0.0019234117 0.0008911115 0.005265931 -0.0052401656
000370 fc ac 2c 3c a7 0c 55 bb 0d e7 81 3c 6c a7 b6 3c
       0.01053929 -0.0032508762 0.015857244 0.02229663
000380 b0 44 9a 3a a5 7c aa 3a 2b 46 a3 3b 24 f4 db bb
       0.0011769738 0.0013007118 0.00498273 -0.0067124534
000390 07 a2 aa 3b d9 ba a3 3c 74 be be bb f0 b8 ef 3c
       0.0052073034 0.019986557 -0.0058210436 0.02926299
0003a0 e3 7a 77 bb b8 43 45 bb b4 37 5e 3b b4 df 34 3a
       -0.0037762455 -0.0030100178 0.0033907713 0.00068997894
0003b0 c0 27 0b 3b e6 dc 85 bb 90 f7 86 bb d9 fc 20 3c
       0.002123341 -0.004085171 -0.004118867 0.009825909
0003c0 f5 40 ff 3a c9 63 9b 3b e2 36 8c 3b 03 a9 18 3d
       0.0019474315 0.00474212 0.0042790035 0.037270557
0003d0 48 dc 4b 3b 90 95 15 ba 40 db af b6 97 14 3d 3b
       0.003110664 -0.00057061855 -5.2409305e-06 0.0028851384
0003e0 7b 35 4d 3c 07 7b a5 3b ae 21 25 bc 38 a5 b9 3c
       0.012524958 0.0050500664 -0.010078831 0.02266179
0003f0 ee 8c 95 3c 67 a7 c9 3c 52 35 b5 3a 7b 56 c4 bb
       0.018255677 0.024615956 0.0013825095 -0.0059917546

arith.constant3 f4 [8, 3, 3, 8]
000000 d6 59 b3 3c e5 aa 7c 3d 84 f0 89 3d 9c 58 fb bd
       0.021893423 0.061686415 0.06735328 -0.1227276
000010 4c 07 18 3e cd d0 63 bd 9c a3 e8 bd 6b 16 40 3d
       0.14846534 -0.05561905 -0.11359331 0.04689638
000020 18 7a 94 bb 5b aa 7c 3d 25 dc af bd da 44 ee bd
       -0.0045311563 0.0616859 -0.08586911 -0.11634226
000030 3a fa f5 3d 4e 9c 3c 3c dd 15 2e 3d 70 dd b6 3d
       0.120106176 0.011511875 0.04250132 0.089289546
000040 3d 10 2d 3a a7 32 de 3d b3 0d 2c 3e 87 6e c4 3d
       0.0006601846 0.10849505 0.16802101 0.09591394
000050 6f a6 17 bd a8 5b 90 bb 0f af fe bd e3 7f d5 bb
       -0.037023958 -0.0044054575 -0.124357335 -0.0065154894
000060 36 cb 76 bc 1a ca ff 3c dc 0b 3e 3d 98 2c 41 bd
       -0.015063098 0.0312243 0.04639803 -0.04716167
000070 8e 5f 16 3e 3b 8a ec 3d 92 db 07 3e 98 67 c5 bc
       0.14684889 0.11549803 0.13267353 -0.024097249
000080 48 c1 25 be 05 8a 02 3e 42 6c e4 bd 3c cb fa bc
       -0.16187012 0.12747963 -0.11153461 -0.030614488
000090 6c bd de bd 92 0a 90 bd bf a6 b1 3d 63 7a 10 3e
       -0.10875973 -0.07033266 0.086743824 0.14109187
0000a0 f6 06 4f 3e 88 8c e8 3d 6c 5f eb 3d 19 dc 36 bd
       0.20217499 0.11354929 0.1149281 -0.044643495
0000b0 99 59 e2 3d e7 d3 97 3d 15 21 34 3e 20 e5 0b 3d
       0.11052246 0.07413464 0.17590745 0.034154058
0000c0 09 cf 98 bd 80 9f 2d 3e 54 1b 49 bd fc 46 bc 3d
       -0.07461364 0.16955376 -0.049098328 0.09193227
0000d0 a8 b9 2b bd d4 29 d7 3d dd 9d 57 bd 27 d9 a8 bc
       -0.041925102 0.10506025 -0.052640785 -0.020611359
0000e0 88 c3 cb bd 4d 79 05 3e 80 03 0c be 68 44 95 3c
       -0.09949404 0.13034554 -0.1367321 0.018221095
0000f0 ee f4 61 bc 86 d4 9b bc a4 e7 cf bd b2 a7 bc 3d
       -0.013791306 -0.019022238 -0.10151604 0.09211673
000100 0b a7 ee 3c 2d fc 68 bd 96 cb 05 be 80 fa ff bd
       0.029132387 -0.05688112 -0.13065943 -0.12498951
000110 25 c3 06 bd d2 b8 36 3e 56 66 35 3e c7 56 38 3c
       -0.032900948 0.17843941 0.1771482 0.011251158
000120 04 88 27 bd af 5e af bd 8a 14 1b be 93 9a e7 3d
       -0.0409012 -0.08562981 -0.15144554 0.113087796
000130 de d4 9e bd 91 8a 65 3b 02 2f 83 3c c5 64 28 bc
       -0.07755445 0.003502522 0.016013626 -0.010277932
000140 61 07 a6 bc 31 15 21 be ca b2 d1 bd b5 d1 5a 3d
       -0.02026719 -0.1573074 -0.102391794 0.05342265
000150 18 2b d3 3d 38 99 79 3b 9c 71 ed 3d 23 5f d8 bd
       0.10310954 0.003808571 0.11593935 -0.10565021
000160 bd 90 cf bd f8 3f 13 3e 01 d7 f5 bd e7 ad 3b bd
       -0.101350285 0.14379871 -0.12003899 -0.045820143
000170 26 9f 52 3c 4f 7c 29 bd 14 64 19 3e 0d 41 3e bc
       0.012855327 -0.041378316 0.14979583 -0.011612189
000180 4f 6e 46 3e 19 19 1c be c0 ac 36 3d 50 6d 09 3e
       0.19378017 -0.15243949 0.04459834 0.13420606
000190 9c e4 00 3e bd ad 97 bc 76 1e 32 3e 0c f3 af bd
       0.12587208 -0.018515462 0.17394432 -0.085912794
0001a0 d8 f4 eb 3d 4f 11 0d 3e de 0f af 3d 5d 0c 7a 3d
       0.115213096 0.13776134 0.08547948 0.061046947
0001b0 a3 c1 ec bc 3b 19 c0 3b 52 99 31 bd 8b b2 35 be
       -0.028900927 0.0058623827 -0.04335911 -0.1774389
0001c0 34 07 29 3e 00 d7 cc 3d 2f 5f 76 bb 3b 32 15 3d
       0.16506654 0.100019455 -0.0037593355 0.036424857
0001d0 bb e0 cb 3d f3 19 0e bd b4 e8 92 39 fa ea bf bd
       0.09954973 -0.034692716 0.00028020667 -0.0937099
0001e0 d6 6d 07 bd ad f7 52 bc d4 6f f4 bc 1b 4c 13 3d
       -0.033063732 -0.012876433 -0.02983848 0.03596125
0001f0 4e f8 17 bd a9 48 f0 bb 98 af 89 bb 04 55 97 3d
       -0.037102036 -0.0073328805 -0.0042018406 0.07389262
000200 48 d2 ec b9 ab 14 a1 bd 9e 54 e2 3d 00 a7 d4 3d
       -0.000451701 -0.0786527 0.11051296 0.10383415
000210 7c c6 42 3d 54 bc 90 bb ca 02 37 be 0b f0 ab 3d
       0.04755257 -0.0044169817 -0.17872158 0.08395394
000220 0f 35 a4 3d 8b 7b f2 3d 0c e6 7d bd 78 b1 64 be
       0.080179326 0.1183997 -0.061986968 -0.22333324
000230 a7 cc 25 3c 47 42 2f 3d 87 75 bb 3d 60 6b ef bb
       0.010119594 0.042787816 0.09153276 -0.0073065013
000240 00 ea ec 3c 48 6e 0e be 92 3d 42 3d b8 44 d6 bc
       0.028920174 -0.13909256 0.047422 -0.026155815
000250 83 6f 12 be ca 28 f2 3c a4 14 c1 bd f0 85 e4 3d
       -0.14300351 0.029560465 -0.09427765 0.11158359
000260 5f 9a 05 be e0 bd c2 3d 03 fb 56 bd dd b5 96 3d
       -0.13047169 0.09508872 -0.052485477 0.073589064
000270 b3 31 5f bd 64 72 98 3d dd 88 39 be a4 20 c3 3c
       -0.054490756 0.07443693 -0.18118615 0.023819275
000280 c9 f6 6c 3a 08 37 92 3c 66 15 d2 3d 74 cd 0c 3d
       0.00090394594 0.017848507 0.10257988 0.034375623
000290 b2 89 00 3c e7 25 3d 3d c9 a2 17 bc 87 a9 2c bc
       0.007845329 0.046178725 -0.00925512 -0.010538465
0002a0 50 3a a3 bc e3 b3 3d be dc bb 0b bd bd 2e 25 3e
       -0.019925267 -0.18525653 -0.034114704 0.1613111
0002b0 bf dd f1 3c e5 80 cb bc 76 88 77 bd a4 d1 32 bc
       0.029524682 -0.024841735 -0.060432874 -0.01091424
0002c0 7a b1 44 3d 17 52 63 bc 39 34 3d 3e 60 e1 05 be
       0.048020817 -0.013874552 0.18476953 -0.13074255
0002d0 f1 d1 8a bd 9f 36 0f be 9e 53 a6 bd 7e 10 c5 bd
       -0.067783244 -0.1398568 -0.081214175 -0.09622286
0002e0 2c 99 25 bd 32 3f d5 3d ad 7e 47 be 7b ad f9 bd
       -0.04042928 0.10412444 -0.19481917 -0.12191292
0002f0 36 2c 27 3d 29 15 c8 3d 8b 3c fc bd a8 b8 bc 3d
       0.040813647 0.09769661 -0.12316235 0.09214908
000300 3f 24 92 bd 21 eb a4 3d cf f1 b3 3d e5 a2 54 3e
       -0.0713582 0.0805266 0.08786356 0.20765264
000310 a9 a1 21 bd 55 48 16 be bb 51 87 bd 33 30 61 bd
       -0.03946081 -0.1467603 -0.06607386 -0.054977607
000320 6c 22 8a 3c 72 fa 07 bc 1a 7d 27 3e 1f 6b a7 3d
       0.016862117 -0.008299457 0.16356316 0.081747286
000330 e5 23 37 be ab cd c2 bd 30 d8 d9 bd 9f 68 75 3d
       -0.17884786 -0.09511884 -0.106369376 0.059914228
000340 1d 89 8d 3c 66 a5 e7 bd ea d7 25 bc a4 a4 b6 3d
       0.017277295 -0.11310844 -0.010122279 0.089181215
000350 c5 a8 db 3d ac 79 ab 3d 4f 65 26 3c 9a 23 a5 bd
       0.107255496 0.083728164 0.01015599 -0.08063431
000360 69 fa 19 3d fa 78 51 bd 10 7a dd bc bf ec 1a 3d
       0.037592325 -0.051140763 -0.027035743 0.037823435
000370 23 be c3 3d a3 d7 ce 3b 1c 11 fc 3c f2 bf dc 3c
       0.0955775 0.006312327 0.030769877 0.026946995
000380 bf 67 0d 3e 4e 41 e1 bd 2a 82 8f bd 8d e9 5c 3d
       0.13809107 -0.10998784 -0.07007249 0.05393367
000390 12 e9 11 be e4 4e de bb 4e 8e 86 3d 76 04 05 3d
       -0.14249066 -0.006784307 0.06570111 0.032474957
0003a0 24 f1 1c 3e 9a 25 94 3d f5 00 d7 bd 8a b5 dc bb
       0.15326363 0.072337344 -0.104982294 -0.0067355083
0003b0 b4 9c f2 bc e0 64 8a 3d 67 7a d2 bc 45 e5 73 bd
       -0.029615737 0.06757522 -0.025693132 -0.05954482
0003c0 98 e1 eb 3d 64 88 1c be b7 2a d4 3c cf e2 e4 3d
       0.11517638 -0.15286404 0.025899274 0.11176073
0003d0 26 40 21 3e 3f 43 8a bd 6e 26 9b 3d ee 01 a9 bd
       0.15747127 -0.067511074 0.07575689 -0.08252321
0003e0 95 f4 9f bd c5 db 1e be 6a 73 5a bd 49 8f ac bc
       -0.07810322 -0.15513523 -0.053332724 -0.021064417
0003f0 7d 23 0d be b8 73 1e bb f2 bd dc 3c 2b ca 44 bd
       -0.13783069 -0.002417786 0.026946042 -0.048044365

arith.constant4 f4 [1, 48]
000000 5c a2 4c be 53 57 1f 3e 45 83 56 3e 65 b7 5c 3e
       -0.1998381 0.15560655 0.20948513 0.21554334
000010 aa e0 58 bd 29 d1 5c be 03 c8 f0 bd fd 3a cc 3d
       -0.05294863 -0.21564163 -0.11756899 0.099721886
000020 8c 6c c7 3d db 93 67 be 06 30 83 3e e8 7a 4e be
       0.097375005 -0.22614996 0.25622576 -0.20164073
000030 45 c7 07 be b6 cc 43 3d f6 71 20 3e c6 1b c2 3d
       -0.13259609 0.04780265 0.15668473 0.094779536
000040 a4 f5 75 3e 86 f3 d6 3d fa 99 60 3e d5 40 77 3d
       0.24019486 0.10495667 0.21933737 0.060364563
000050 a5 2a c8 3d 7c d3 4e 3e ee 6f 94 bd 3f 87 f4 3d
       0.09773759 0.20197862 -0.072479114 0.11939859
000060 7a 9e 35 be 83 8b 36 be 96 e6 57 3d e8 88 bd 3d
       -0.17736235 -0.17826657 0.05271014 0.092546284
000070 4f 48 8d be 18 ef 7b be e0 c3 c8 bd a3 e1 4f 3c
       -0.2759423 -0.24602926 -0.09802985 0.012688073
000080 5c 24 12 3d 2b 65 ab 3d 48 01 55 3e 88 ab 2a 3e
       0.035679206 0.08368906 0.2080127 0.16666996
000090 97 3c 78 3e 1f 0f 6d 3e 59 94 5a 3e a3 d3 2e 3e
       0.24241863 0.231503 0.21345653 0.1707292
0000a0 76 bc 11 3e 56 fd a8 bc cf 5f a4 bc bb ba 6a 3e
       0.14232048 -0.020628612 -0.020065216 0.22922795
0000b0 31 29 48 bd 74 bd 3e 3e 0c 2d 10 be b6 1c 6c be
       -0.04886741 0.18626958 -0.14079684 -0.23057827

arith.constant5 f4 [48, 1600]
000000 aa b1 a7 3c f9 72 ba bd 53 30 8b bb 32 6b 0b bd
       0.020470459 -0.091039605 -0.004247704 -0.034037776
000010 dc 2b 98 3c 6e 32 8f 3d 29 39 07 3d e0 ae b4 3c
       0.018575601 0.069920406 0.033013497 0.022056043
000020 0a 4e 29 bc f4 7b a3 bc de a8 8d 3c d2 3e 0b bd
       -0.010333547 -0.019956566 0.017292436 -0.033995457
000030 5e 94 ee bc 48 72 b6 bc b9 0e e4 bb 3b 7e 9a 3c
       -0.029123481 -0.02227129 -0.006959763 0.01885902
000040 db af d3 bc 4d be 4b bb e9 3a d6 3c 1c d6 48 bd
       -0.02584069 -0.003108877 0.026151137 -0.049032316
000050 e3 78 37 bd 6a a6 29 bb 39 a7 49 3d d2 73 f4 3b
       -0.04479302 -0.0025886544 0.04923174 0.007460096
000060 2c aa 90 bd c7 36 92 bc 9f 3d e2 ba af 5f 82 3c
       -0.07063708 -0.017848385 -0.0017260796 0.015914766
000070 7e 7a 04 3d 0f 1d d8 bc c1 cb 49 3c 4e e9 c8 3c
       0.03234338 -0.026381044 0.012316645 0.02452531
000080 9b c5 13 bd 6e 67 3c 3b 2f af 48 bd f6 2f 50 3c
       -0.036077123 0.0028748172 -0.048995193 0.012706747
000090 09 89 07 bd 46 08 bc bb 6e 0e fa bb 75 91 9c 3c
       -0.03308967 -0.005738291 -0.0076311147 0.019112328
0000a0 13 a8 c1 bc 69 46 ce bc 7e 52 2e 3d e3 1b 8e bd
       -0.023639714 -0.025180059 0.04255914 -0.06938913
0000b0 d0 ec d5 bb 4b 4f 8c 3c a8 9f 92 3b de 33 08 bc
       -0.0065284744 0.017127654 0.004474599 -0.008313147
0000c0 7b aa 64 3c 2d fa cf 3c 33 08 26 bd 39 db e2 3c
       0.013956661 0.025387848 -0.040535163 0.027692424
0000d0 c9 79 9b 3c 45 48 98 3d a7 25 cd ba c9 d0 60 bd
       0.01897897 0.07435659 -0.001565148 -0.054886613
0000e0 73 92 75 3c 33 16 7f bd 40 44 5d 3d b3 4c 08 bd
       0.0149885295 -0.06227703 0.054020166 -0.03327627
0000f0 94 55 8b 3c 6a 42 16 bd 65 0a 30 bd 90 3e 7a 3d
       0.01700858 -0.03668443 -0.042978663 0.06109482
000100 d5 18 27 3d e9 e2 90 3c 43 58 ae 3d 2b 4a ea b9
       0.040795166 0.017686324 0.08512928 -0.00044687217
000110 d6 22 1d 3d c2 1d 22 bb 26 e3 ab bd e2 cf b7 3c
       0.0383633 -0.0024736975 -0.083929345 0.022437993
000120 72 9f a5 bd 02 f2 8b 3d 0d be ef bc da c3 f3 3c
       -0.080870524 0.06833269 -0.029265428 0.029756475
000130 44 02 84 bc 29 b0 e9 bc 64 44 3a 3c 0b 1f 43 3d
       -0.016114362 -0.028526383 0.011368845 0.047637027
000140 b4 f2 74 bd c5 73 58 3d d9 92 2c bd 0f df 37 bd
       -0.059801772 0.05284478 -0.042132232 -0.04489046
000150 4e 37 07 bd 41 b0 0d bd 05 bc 18 3d 28 f3 6b bd
       -0.033011727 -0.034591917 0.037288684 -0.05760494
000160 40 79 57 bc c9 d3 ac bc 1a 96 84 3b 9b 2d dc 3c
       -0.013151467 -0.02109708 0.004046214 0.026877215
000170 1e b8 01 bd 61 cd 64 3d da b4 46 bd 3c 4f 3e 3d
       -0.03166973 0.055859927 -0.048512317 0.046462283
000180 23 a9 07 bd 70 c3 36 3d cb 64 28 3d 49 40 37 bd
       -0.033120286 0.044619977 0.04111175 -0.04473904
000190 fb e8 52 bc 03 51 7f 3b 72 24 fd bb ca 61 04 3d
       -0.01287293 0.00389582 -0.007725292 0.03231982
0001a0 d9 12 4f bd ca 97 d5 3b e5 d4 29 3d c1 2c c4 bc
       -0.050555084 0.006518339 0.041462798 -0.023947122
0001b0 0b 89 94 3c 4d 61 13 3d 7e 3c 6e 3d 89 71 0b bd
       0.018131753 0.035981465 0.05816316 -0.034043822
0001c0 36 dd 87 3d ba 7f 91 3d 4f 19 73 bd b5 a9 18 3c
       0.066339895 0.0710444 -0.059350308 0.009317805
0001d0 4d cb 5c bd 89 25 8b bb ef 1f 1d bd f2 32 f1 bc
       -0.05390482 -0.004246418 -0.038360532 -0.029443238
0001e0 a8 94 b5 bd 26 8b c0 b9 84 31 44 bd ad 3a 5d bd
       -0.088662446 -0.00036724767 -0.047898784 -0.054011036
0001f0 9f 8d 20 3d 44 74 89 3d 1f f3 66 3c b3 90 0f bd
       0.03919756 0.06711629 0.0140960505 -0.035050105
000200 09 cc bd bc 90 47 3c bd 08 ff be 3c 09 f5 b3 bd
       -0.02316858 -0.045966685 0.023314968 -0.08786971
000210 70 38 2a bd 8b 5a f4 bc c3 71 eb 3c e8 cc 6a 3d
       -0.04155773 -0.02982833 0.02874077 0.05732432
000220 32 2b 9c 3c 22 0d f5 3c 87 ad 1f 3d 70 20 1f bd
       0.019063566 0.029913489 0.038983848 -0.038849294
000230 fe 3e 52 bd 74 c1 08 bc 18 cc 18 3b 80 a1 10 bd
       -0.051329605 -0.008346904 0.0023315009 -0.03531027
000240 2d 5e de 3c 5a ff 8a 3c 48 f2 94 bc 38 e9 87 bd
       0.027144516 0.016967464 -0.018181935 -0.0663628
000250 99 d9 d2 bc 25 63 ed bb 5d 68 c1 bb 1d 2f 72 3c
       -0.025738524 -0.007244485 -0.0059023337 0.0147817405
000260 d9 98 1d bd dc 45 ef 3c a1 12 3e bd 9a bf 48 bd
       -0.038475845 0.029208116 -0.046404485 -0.04901085
000270 2f 2c 74 3d fe a6 6b bd 7f ab 13 bd 68 0a 22 3d
       0.05961245 -0.057532303 -0.036052223 0.039560705
000280 24 bd 37 3d 03 c9 bf 3c 82 87 97 bb 28 ee 29 3c
       0.044858113 0.02341128 -0.004624308 0.010371722
000290 fc b2 51 3d 8b b9 76 3c 00 dc f9 bc 46 6d 12 3d
       0.051196083 0.015058885 -0.030500412 0.035748743
0002a0 21 dd 1a bd b4 93 4d 3d 9b 00 2e 3c 9d d2 78 bd
       -0.03780854 0.05018969 0.010620262 -0.06074773
0002b0 a1 af 08 bd 3d 87 a8 3d af ab 4a bd ce 46 ce 39
       -0.033370618 0.0822892 -0.049480136 0.00039344135
0002c0 ec f7 25 3d 29 65 11 bd af a4 66 3d e5 82 9c bc
       0.04051964 -0.035496864 0.0563094 -0.019105384
0002d0 62 58 3e bd 06 80 55 bd 06 73 ab bc 98 48 0e bd
       -0.046471007 -0.052124046 -0.02092887 -0.0347372
0002e0 65 a9 29 bd 26 c9 96 bc 16 b9 b7 3c da c3 34 bd
       -0.041421313 -0.018406462 0.022427123 -0.04413209
0002f0 4b f2 fa bc 4a e9 e0 3c 5d fd fc 3c 84 25 bb bb
       -0.030633112 0.02745499 0.030882532 -0.0057112593
000300 ab a8 80 bd 1e 56 7d 3c d7 8c b2 bc 00 2f 36 3d
       -0.06282171 0.0154624265 -0.021795673 0.044478416
000310 67 89 1b bd a9 29 1d 3d 2b 0d 64 bc 79 1e 4e 3d
       -0.037972834 0.03836981 -0.013919155 0.05032203
000320 77 30 44 bd 44 f9 19 3d a4 9f 8e 3d 78 04 18 3d
       -0.047897782 0.037591234 0.06964043 0.037113637
000330 78 6d 8a bc 48 b9 6c bd a5 c9 be bd 34 e0 92 3b
       -0.016897902 -0.057793885 -0.093158044 0.0044822935
000340 0c 9f 81 bc 87 58 b0 3c 6e 6a 37 3d f4 4c 09 bc
       -0.01582291 0.021526588 0.044779234 -0.008380163
000350 b0 e7 08 3b 9e 13 7d bd 31 c3 92 bc e0 4e 0e bb
       0.002089005 -0.061786287 -0.01791534 -0.0021714494
000360 11 3f 4b bd 01 a7 1b bd 64 19 90 3c 18 7c cb 3b
       -0.04962069 -0.038001064 0.017590232 0.0062098615
000370 9a b1 4a 3d cb 0d 23 bc 87 73 6e bd 9c df 1d 3b
       0.04948578 -0.009952019 -0.058215644 0.002408958
000380 23 e7 7d bd 4e 73 d9 ba c8 3a 32 3d a5 d5 4a bc
       -0.061988007 -0.001659015 0.04351309 -0.012380038
000390 fb aa 97 bd 2d e5 1e bd a2 ca 14 bd 74 7f aa ba
       -0.07405659 -0.038792778 -0.03632606 -0.0013007955
0003a0 f5 09 5c 3c 87 e6 8f 3c 68 19 97 3a af bb 28 bd
       0.013430108 0.017565979 0.0011527957 -0.041194614
0003b0 5d 7b 90 bd 9a a1 e8 bc 81 03 09 3c b6 ce 4a bd
       -0.0705478 -0.02839737 0.008362652 -0.04951354
0003c0 a2 14 7e bd 68 11 f0 3b af 09 f9 3c 2f 77 36 bd
       -0.062031396 0.0073262937 0.030400125 -0.044547256
0003d0 da fd f8 3c 05 01 ba bc 3a 51 75 bd 54 33 3d bd
       0.030394483 -0.022705564 -0.059891917 -0.04619153
0003e0 d8 9e 55 bd 70 c3 b8 bd 3c 33 64 bd 95 f1 93 bc
       -0.05215344 -0.09021652 -0.055712923 -0.018059531
0003f0 e1 1d 4a bd 37 45 57 bd 59 db 22 3b 0b 12 be 3c
       -0.0493449 -0.052556243 0.002484998 0.023201963

arith.constant6 f4 [64, 768]
000000 60 37 ff 37 c1 da 3e 39 97 34 87 38 2c 41 e1 38
       3.0424155e-05 0.00018201304 6.447097e-05 0.00010740975
000010 02 37 d7 38 36 88 dc b9 40 ef 08 b9 3f 8b 07 b9
       0.00010262245 -0.00042063155 -0.00013059098 -0.00012926476
000020 76 c0 8c b8 c0 c7 80 b9 95 5d 3e 39 05 e6 08 b9
       -6.711569e-05 -0.00024562888 0.00018154674 -0.0001305566
000030 a8 99 45 37 db af 17 b9 a0 fd 8a 38 18 e2 40 b8
       1.1777891e-05 -0.00014465993 6.627594e-05 -4.5986933e-05
000040 c5 ca 80 39 7b d2 03 b9 7c 12 d7 b8 9c a0 87 38
       0.00024565138 -0.00012571544 -0.00010255442 6.4672175e-05
000050 7d 8e 07 39 54 d6 3e 39 b1 65 19 b9 cc 15 76 38
       0.00012927684 0.00018199655 -0.000146291 5.867127e-05
000060 a2 07 bb b8 6d 8f b9 b8 96 d1 33 b9 16 5c 07 39
       -8.9182766e-05 -8.8482026e-05 -0.00017148847 0.00012908908
000070 e2 e3 81 39 14 8a be 38 12 5b 65 b8 24 ca 74 b8
       0.00024774583 9.085625e-05 -5.468267e-05 -5.836239e-05
000080 9c bb ee 38 77 4c 9e b8 1c f5 06 37 43 cf 48 38
       0.00011383669 -7.54827e-05 8.044091e-06 4.7876743e-05
000090 85 c4 64 39 bb 6e 9e 38 ca 3e 8b 38 ce 4b 91 38
       0.00021816984 7.554652e-05 6.639732e-05 6.9282585e-05
0000a0 56 d4 3d b9 e2 78 8d 38 59 58 ba 38 36 d0 b6 38
       -0.00018103546 6.74592e-05 8.885627e-05 8.7172186e-05
0000b0 c1 e8 bf 38 b0 0c e1 b8 b2 50 08 39 d1 70 80 39
       9.1509435e-05 -0.00010731199 0.00013000032 0.00024498117
0000c0 24 c7 4d 38 c0 4f 0f b7 b8 5a 08 39 1a 12 09 39
       4.9061273e-05 -8.542032e-06 0.00013003766 0.00013072081
0000d0 d8 5d 83 38 1c 16 0c b9 38 ce 1a 37 20 0f 1b b8
       6.2640465e-05 -0.00013359677 9.227129e-06 -3.6968966e-05
0000e0 ed 37 fc b8 df fe e3 b8 d0 15 33 39 14 cb 83 b8
       -0.000120267134 -0.00010871677 0.00017078896 -6.284393e-05
0000f0 f7 eb c8 b8 98 c9 64 38 ca 3a c0 38 30 51 69 b8
       -9.580695e-05 5.4547185e-05 9.166224e-05 -5.562714e-05
000100 54 b9 ba b8 74 d0 8c 38 de 19 da 39 c8 12 c3 b8
       -8.903691e-05 6.7145476e-05 0.00041599473 -9.301823e-05
000110 43 95 f9 b9 1e 6e 18 b9 71 92 7a b8 46 0b 0c 39
       -0.0004760419 -0.00014536871 -5.974103e-05 0.0001335564
000120 3e 66 87 b8 b4 6f 6a 38 c2 0a 9f b8 66 1a 42 38
       -6.456346e-05 5.589398e-05 -7.5837146e-05 4.627779e-05
000130 64 13 7f 39 ac dc 9f b8 86 87 c8 38 2c a6 25 b9
       0.00024325919 -7.622814e-05 9.5619864e-05 -0.0001579753
000140 66 8f 9f b8 41 1a 54 39 96 2d ab b8 8c 77 08 37
       -7.608421e-05 0.00020227676 -8.1624064e-05 8.134066e-06
000150 6c 92 8d 38 a8 aa be 38 f8 3f 5e 37 58 4e 0c 39
       6.750677e-05 9.091693e-05 1.3247125e-05 0.00013380626
000160 b2 96 7b b9 33 3b df 39 68 a3 7f 39 16 4e 83 b9
       -0.00023993364 0.0004257798 0.00024379569 -0.00025044446
000170 77 db 16 39 fe 09 09 b9 0b a3 0a b9 ca ac a7 b7
       0.00014386872 -0.0001306906 -0.00013221444 -1.9988413e-05
000180 cb 53 f5 38 f8 d1 96 b9 00 6a 78 b8 ce dc 9b 38
       0.00011698118 -0.00028766668 -5.9226528e-05 7.432104e-05
000190 05 13 63 39 43 65 00 b9 ec 0f 4d 38 ef 6a e2 38
       0.00021655492 -0.00012244754 4.8890637e-05 0.00010796438
0001a0 cf 51 8d 38 d8 07 44 37 0e f0 07 b9 07 93 41 b8
       6.738642e-05 1.1684337e-05 -0.0001296403 -4.6151716e-05
0001b0 a0 03 84 38 f3 32 a6 38 a6 e1 77 38 e4 00 65 38
       6.294926e-05 7.924987e-05 5.909954e-05 5.4598684e-05
0001c0 08 9b 4a b6 f7 42 ec b8 00 5d fe 37 32 f5 54 b9
       -3.0190586e-06 -0.0001126583 3.0322466e-05 -0.00020309238
0001d0 f6 7d be b8 8a b5 a4 b9 03 01 1b 38 c8 b4 03 b9
       -9.083368e-05 -0.00031415775 3.6955822e-05 -0.0001256048
0001e0 f6 07 d7 b8 de a3 4c b9 f6 9c 9f 38 43 7d 11 39
       -0.00010253482 -0.00019516001 7.610947e-05 0.00013874941
0001f0 c9 75 34 39 84 5d 75 38 4c 33 88 38 04 42 d9 38
       0.00017210016 5.8499645e-05 6.49454e-05 0.00010359663
000200 80 91 3f 36 b0 49 75 b8 3f 2d 4d b9 cc 72 08 b9
       2.854591e-06 -5.848118e-05 -0.00019567179 -0.00013012736
000210 d4 58 a4 b9 99 51 08 b8 b6 32 e1 b8 8f d2 bf 38
       -0.000313467 -3.250092e-05 -0.00010738282 9.146809e-05
000220 d9 a7 4e b8 7e ef 08 39 46 0b 54 b9 58 bc 42 37
       -4.9270548e-05 0.00013059188 -0.00020222095 1.1607153e-05
000230 60 55 b7 b6 8f 9e 08 39 1a de f8 b9 a3 21 09 b9
       -5.463764e-06 0.00013029038 -0.00047467725 -0.00013077869
000240 1e 6b e1 39 c4 83 08 39 e8 1e d8 38 95 ca e0 b8
       0.00042995153 0.00013019057 0.00010305439 -0.00010718886
000250 ca 5e 0c b9 27 8a 80 38 ea 14 2c 39 8c fd 5a 39
       -0.00013386752 6.1292485e-05 0.0001641099 0.00020884554
000260 3e ab 7e 39 63 07 cd 38 c1 54 19 b9 34 c1 3e 39
       0.0002428712 9.7765376e-05 -0.0001462279 0.00018191786
000270 4e 4c 24 b9 40 50 c0 b7 d8 90 05 39 56 15 87 39
       -0.00015668685 -2.2925553e-05 0.00012737827 0.00025765103
000280 fd bf ea 37 3f 2b 13 b9 4e 34 f9 b8 20 31 0d 37
       2.7984375e-05 -0.00014035123 -0.00011882988 8.415693e-06
000290 2f 6f 1b b9 96 fa 87 38 b5 b0 03 39 8a 08 f6 39
       -0.00014823371 6.483977e-05 0.00012558962 0.00046927138
0002a0 48 15 08 39 48 6b 8b 38 76 52 8b b8 5e 3a 61 39
       0.00012977899 6.648019e-05 -6.643396e-05 0.00021479416
0002b0 73 d6 4f 38 22 77 13 39 ad 76 77 b9 c8 37 2a b9
       4.9552367e-05 0.00014063393 -0.00023599966 -0.00016233244
0002c0 ec 13 9c 38 02 85 68 b8 80 2c 07 39 b0 90 08 b9
       7.4423704e-05 -5.5436984e-05 0.00012891181 -0.00013023871
0002d0 70 5e 08 b7 cd 79 ad 39 07 7d 4d 39 86 d3 52 b9
       -8.12822e-06 0.0003308788 0.000195969 -0.00020105959
0002e0 d4 35 d9 b8 e2 3c 07 b9 78 10 bb 37 16 6e 14 39
       -0.000103573926 -0.00012897284 2.2299806e-05 0.0001415539
0002f0 02 3f 88 38 68 36 9f b8 5e 0e 72 b9 56 7e 5f b9
       6.4967215e-05 -7.591845e-05 -0.0002308427 -0.00021314001
000300 fa e9 ef b8 ba 1a 9c b8 27 09 a8 b8 72 de ee b8
       -0.000114399896 -7.443638e-05 -8.012569e-05 -0.00011390158
000310 da f0 07 b9 ac c3 f3 37 18 59 7c b8 e2 25 e1 b8
       -0.00012964327 2.9058974e-05 -6.0164457e-05 -0.00010735892
000320 47 d0 81 39 56 4a 50 b8 df 5e 3d 39 fb 6e 8d 38
       0.00024759976 -4.9660295e-05 0.00018059787 6.744076e-05
000330 1e a1 f9 b9 ec 3d 12 b9 39 75 78 b8 d1 2d e6 38
       -0.00047613023 -0.00013946713 -5.923698e-05 0.000109757886
000340 4b e6 a2 b9 43 e3 07 39 2c 11 bd 37 89 ec fa 39
       -0.0003107063 0.00012959265 2.2538552e-05 0.00047859948
000350 00 e3 66 b7 ea 5a db 37 b8 8d f3 38 18 3a 77 b8
       -1.3761921e-05 2.614917e-05 0.0001161354 -5.8943493e-05
000360 58 5d f1 b8 cc 7d 9e 38 0a ba 8d 38 6a 57 13 39
       -0.00011509162 7.5574586e-05 6.7580564e-05 0.00014051577
000370 90 b3 0f b9 86 34 da 39 75 4a ba b8 0f 8b 1b 38
       -0.00013704435 0.00041619333 -8.88304e-05 3.7084388e-05
000380 91 81 67 38 ba 78 b9 38 f2 f9 53 b9 a2 5c ee 38
       5.519536e-05 8.8439745e-05 -0.0002021564 0.000113659786
000390 98 5e 4c b9 99 b8 4b 39 39 3a 4c b9 20 c9 0f 37
       -0.00019490195 0.00019428357 -0.00019476646 8.570292e-06
0003a0 10 1d c5 37 ca 88 01 b9 f0 fa 9a 38 08 ff be 37
       2.3497763e-05 -0.00012353357 7.390033e-05 2.2768523e-05
0003b0 82 4b bd b7 6c 41 bf 37 b3 a9 08 b9 2a b9 4c 39
       -2.2565717e-05 2.2799439e-05 -0.00013033189 0.00019523935
0003c0 89 96 df b9 60 e1 f9 37 3d 5f cf b8 e6 ba 07 39
       -0.00042646032 2.9788062e-05 -9.888269e-05 0.00012944228
0003d0 08 86 07 b9 fc c2 2c b7 d6 b8 cd 38 35 cf 8b b8
       -0.00012924534 -1.0297397e-05 9.80959e-05 -6.666632e-05
0003e0 9c 9e 08 b9 ac 52 82 39 bc d2 7f 39 d3 d8 8c 38
       -0.00013029057 0.00024857128 0.000243972 6.716107e-05
0003f0 93 c6 bf 38 41 8a b9 b8 ee aa 4b b8 bd 66 b1 38
       9.144577e-05 -8.847239e-05 -4.8558162e-05 8.459154e-05

arith.constant7 f4 [24]
000000 1c 83 00 bf 15 96 21 bf 87 00 02 bf 26 5d 0e bf
       -0.5020006 -0.6311963 -0.50782055 -0.55610883
000010 67 c5 1c bf 37 8a 18 bf 7d d9 06 bf 14 b2 ef be
       -0.6123871 -0.595859 -0.5267561 -0.4681555
000020 b2 51 32 bf 4f b6 11 bf 84 4a 20 bf 26 cf ae be
       -0.6965591 -0.56918806 -0.626137 -0.34142417
000030 b6 03 d1 be db 83 fc be fb 9e f4 be a6 e4 f7 be
       -0.40823144 -0.49319348 -0.47777542 -0.48416632
000040 fe 9a ca be cd 4e 01 bf 4a 6e 07 bf a7 4d 9a be
       -0.39571375 -0.50510865 -0.5290266 -0.3013737
000050 38 4c c1 be b0 75 9b be 2f 5e fb be c9 0e ee be
       -0.37753463 -0.30363226 -0.49095294 -0.46495655

arith.constant8 f4 [24]
000000 d5 a3 4c 40 35 69 57 40 5a cc 59 40 ad e0 87 40
       3.1974995 3.3657963 3.4030976 4.2461762
000010 91 b4 77 40 4b 79 82 40 43 6d 93 40 b4 e8 41 40
       3.870396 4.0773063 4.6070876 3.029828
000020 ea 68 84 40 da e2 4e 40 8f 85 5c 40 d1 db 83 40
       4.137807 3.232596 3.4456518 4.120583
000030 3e 29 a4 40 43 d6 5c 40 b9 50 86 40 49 6b ad 40
       5.1300344 3.4505775 4.197354 5.4193463
000040 27 8e 8f 40 4f bd 8b 40 a0 3c 83 40 9b 34 be 40
       4.4861026 4.366859 4.1011505 5.9439216
000050 71 ba b2 40 77 6e c4 40 a3 31 82 40 0e f0 85 40
       5.585259 6.1384845 4.068559 4.1855536

arith.constant9 f4 [8]
000000 aa 39 47 bf 57 7f 1e bf ac 62 91 bf d0 f6 49 bf
       -0.77822363 -0.61913055 -1.1358237 -0.7889223
000010 f1 10 5f bf 8a a0 41 bf 2d 1a 6a bf 3d 62 96 bf
       -0.87135226 -0.7563559 -0.9144619 -1.174873

arith.constant10 f4 [8]
000000 ea 0f c6 3f 99 9e a9 3f 10 93 1d 40 6e 9a c4 3f
       1.5473607 1.3251525 2.462101 1.5359628
000010 ab 3c de 3f 48 67 c8 3f 95 58 03 40 55 1d 14 40
       1.7362264 1.5656519 2.0522816 2.3142903

arith.constant11 f4 [8]
000000 3c d6 6b be bc a4 bd bf 2d ab c9 bf bd 58 a6 bf
       -0.23030943 -1.4815898 -1.5755364 -1.2995831
000010 61 34 68 be 78 c6 a0 bd a1 18 d6 be fc 05 9e bf
       -0.22676231 -0.07850355 -0.41815665 -1.2345576

arith.constant12 f4 [8]
000000 86 91 51 41 41 9b 2e 40 76 21 11 41 3d 04 5d 41
       13.098028 2.728226 9.070669 13.813535
000010 6b 65 8c 41 46 77 d9 41 9f f5 e7 40 e6 98 a6 40
       17.54952 27.183239 7.248733 5.2061644

arith.constant13 f4 [64]
000000 b7 ed 26 bc bc 8e 7f bc 65 26 0c 3d ae 71 10 bc
       -0.010188512 -0.015597995 0.034216303 -0.008816166
000010 ba 3a 4a 3c 48 f4 2b 3d eb 59 c7 ba 1a 56 27 3d
       0.012343103 0.04198101 -0.0015209293 0.040853597
000020 fc 46 0e 3c ef 3e ca bb 40 c4 ef 3b 09 2d 5f bb
       0.008683916 -0.006172053 0.007317096 -0.0034053943
000030 cc 45 08 bc 0e a1 8f 3c 25 82 2b 3c 81 cf 54 3c
       -0.008317422 0.017532852 0.010468041 0.012988926
000040 42 5c a8 bb 39 8e 6d bc 16 7c 11 3d c2 e9 c2 bb
       -0.005137951 -0.014499241 0.03551873 -0.0059482763
000050 bf 5d bf bb e9 81 f1 3c 06 33 29 bc 5e ed b1 3c
       -0.005840033 0.029480891 -0.010327106 0.02171963
000060 8c e6 17 3d 1f f5 d3 bb 48 f2 33 3d 97 56 42 bc
       0.0370851 -0.0064684297 0.04393223 -0.011861465
000070 76 c7 eb 3c f4 83 52 3c 22 29 f1 bb 7c e4 f5 ba
       0.028781634 0.012848843 -0.0073596397 -0.001876011
000080 f9 6c 61 bc 78 cc 9a bb 0b 32 32 3c 73 48 86 bb
       -0.013758891 -0.0047240816 0.010876189 -0.004097992
000090 e0 55 25 3d 49 1d 18 3d 63 e5 2d bc dd 44 92 bb
       0.0403651 0.037137304 -0.010613772 -0.0044637755
0000a0 a9 f5 e5 3c 14 81 bd 3c 7d 30 1e bc af 20 24 3d
       0.028071241 0.023132838 -0.009655115 0.040070232
0000b0 de 3b 57 bb c8 fe 11 3d f8 a3 fe 3c 9f 36 1c 3d
       -0.003284208 0.03564337 0.031084046 0.03813803
0000c0 d6 d3 1a bc 24 5d 87 3c 83 80 8c 3c 67 f1 cc ba
       -0.00944992 0.016523905 0.017151123 -0.0015635908
0000d0 d2 bd 97 3c d2 96 dc 3c 58 37 23 3c 15 3e 32 3d
       0.01852313 0.026927385 0.009961925 0.043516237
0000e0 65 e6 17 3d 94 bb 90 3c 1f 53 06 bc 68 87 fb bb
       0.037084956 0.01766757 -0.008198529 -0.007676054
0000f0 0a 9a 8f bc f3 eb 06 3d c2 90 f9 bb b8 22 9d 3c
       -0.017529506 0.032939862 -0.0076161334 0.019181594

arith.constant15 f4 [48]
000000 c1 cd aa 3c 87 d1 3b bd 37 00 2a bd 1d 41 d5 3b
       0.020850064 -0.045854118 -0.04150411 0.0065080062
000010 be 95 43 3b 7c 84 f7 3b 00 1a 8a 3c e2 e6 9b bb
       0.0029843892 0.007553635 0.0168581 -0.004757748
000020 6d 05 9e 3b bb 45 e2 3c 9e 58 11 3c 40 44 2e 3c
       0.004822424 0.02762114 0.008871226 0.010636389
000030 1b 3c 4d ba d6 7d 66 3a 6f c6 9a ba 7d 0a 29 bc
       -0.0007829086 0.0008792555 -0.0011808405 -0.010317442
000040 21 61 90 bc a6 1e 27 bd e2 c2 7c bc 15 a7 98 bc
       -0.01762444 -0.040800713 -0.015427323 -0.018634358
000050 40 6a 01 bd f6 4a 84 bd 1c 02 96 3c 00 63 f6 bc
       -0.03159547 -0.0645961 0.018311553 -0.030076504
000060 81 6d e5 3c e6 a7 d0 3c 71 34 6d bc f2 c6 9e bb
       0.028006317 0.025470685 -0.014477835 -0.0048454935
000070 f1 c9 72 bc f3 50 b8 3c 37 bd 40 3c 50 a5 3f bc
       -0.014818654 0.022499537 0.011763862 -0.011697128
000080 2e 9a 71 bb b8 ca 74 3b 36 46 22 bc 30 48 0e bd
       -0.003686558 0.0037352275 -0.009904435 -0.034736812
000090 2e 4a fd bc c4 f8 1a bd f1 e0 a2 bc 14 5c fa bc
       -0.03091916 -0.037834898 -0.019882651 -0.030561484
0000a0 b3 3a 23 bd ac 68 f6 bc 58 38 0a bc 3c 6d 4d bc
       -0.0398509 -0.030079208 -0.008436285 -0.012538251
0000b0 62 c8 b5 bc 80 b5 74 3b 8f 18 76 3c fa f3 98 3c
       -0.022190277 0.0037339628 0.015020504 0.018671025

model/conv2d/Conv2D f4 [8, 3, 3, 3]
000000 48 9a c0 3c 85 1b 3c 3e d3 e9 dc 3d 52 91 e7 3c
       0.023511067 0.18369873 0.10786786 0.028267536
000010 b1 83 57 bc b0 64 0d be 6e 24 d2 3d 51 76 63 3d
       -0.013153956 -0.1380794 0.10260855 0.055532757
000020 03 3a d8 bd dc 0a ff bd 3d 58 10 3e 07 69 2f be
       -0.1055794 -0.12453243 0.1409616 -0.17129909
000030 59 a7 23 be b9 2d 15 3e 86 2a 23 3d 0d 64 27 bd
       -0.15981807 0.14568223 0.039835475 -0.0408669
000040 4d 20 35 3e b0 94 88 3d 5a e1 0d be 0f 39 b5 bd
       0.17688103 0.06668985 -0.13855496 -0.08848774
000050 56 23 1b be c8 6c 91 bb c8 e1 55 bc d1 a7 a4 bc
       -0.15150198 -0.0044380166 -0.013054319 -0.020099552
000060 51 60 c4 bd 12 14 de bd c0 9c ac bd 42 e3 9f 3c
       -0.095886834 -0.10843672 -0.08428335 0.019517545
000070 1a bb 13 bb f0 03 ac 3d 23 29 78 3d e9 bd 87 3b
       -0.002254194 0.083991885 0.060586106 0.004142512
000080 03 aa 66 bd 80 91 9f bd 93 66 98 bd 43 4d 87 3d
       -0.05631448 -0.07791424 -0.074414395 0.066065334
000090 56 21 81 3c 06 d3 31 bc 72 e2 5c 3c 43 c3 13 3e
       0.015762966 -0.010853535 0.013481723 0.14429955
0000a0 bb d9 f2 bd 3c e6 cf 3c 1c c1 c9 3d ba 28 c9 3c
       -0.11857935 0.025378339 0.09851286 0.024555553
0000b0 d2 7d 17 3e 6d 19 ad 3d 83 c2 3b bb 50 5e 9b 3d
       0.1479409 0.08452115 -0.0028649874 0.07586348
0000c0 26 6f 83 3d e2 64 20 3d 26 35 81 3c 42 e4 89 3b
       0.06417684 0.03915871 0.015772413 0.0042081187
0000d0 68 65 6b bd 72 4f 00 3e 99 18 ef bd cf 30 fc 3d
       -0.057469755 0.12530306 -0.116746135 0.12313997
0000e0 5c 65 9a bb 25 72 92 3d 1e 50 25 3e 49 5f 0d 3c
       -0.00471179 0.071506776 0.16143844 0.008628675
0000f0 0a dc f8 bd 71 52 b4 bd e5 83 a4 bd f2 5e 24 be
       -0.12151344 -0.08804787 -0.080329694 -0.16051844
000100 b9 2a 15 3e fa f8 a6 3d 32 ba 36 be 30 8a 4a 3b
       0.14567079 0.08152957 -0.17844465 0.003090512
000110 18 19 f8 3c a6 4a 4f 3e 27 a5 7b 3c 22 31 a6 bd
       0.030285403 0.2024332 0.0153592 -0.0811484
000120 10 b8 2a be 98 cd b6 bd 2b fd bd 3d 22 ef c4 3d
       -0.16671777 -0.08925933 0.092768036 0.096159235
000130 db 60 b3 3d 9c 66 19 3e d9 d7 01 3c 45 42 df 3d
       0.08758708 0.14980549 0.007924997 0.10901312
000140 61 f6 7b bd f2 42 c2 3d 01 81 55 3e e9 27 9f bd
       -0.061514262 0.09485425 0.20849992 -0.07771284
000150 b5 04 0a be 0b 1a 5e 3e e1 34 df bd b4 b4 1f 3d
       -0.13478358 0.21689622 -0.10898758 0.03899069
000160 52 58 d3 bd f6 90 0f 3c b4 5e 51 3e 00 ff 34 be
       -0.1031958 0.008762589 0.20446283 -0.176754
000170 45 3e 32 3e ad f0 75 3d 8c e3 2d be 3e c9 0a be
       0.17406566 0.06004398 -0.16981333 -0.1355333
000180 2f 43 60 be bf aa 7d 3e a3 3f 4a bd 34 f1 8f 3c
       -0.21900629 0.24772166 -0.049377095 0.01757107
000190 ef 0d 02 be 9d d7 6f be 81 f8 a4 3d 9e b0 ba 3d
       -0.12700628 -0.23422094 0.08055211 0.09115718
0001a0 98 50 0a 3a cc ce 8c bd af a0 d4 3d 23 2f f7 3d
       0.00052762916 -0.06875381 0.103822105 0.120695375
0001b0 24 34 33 be 56 ae 8a 3d f0 e9 c1 bd cb df 85 bd
       -0.17500359 0.06771533 -0.09468448 -0.06536826
0001c0 98 5c b0 3d e6 92 4a 3e bd 63 37 be bf 17 9d bd
       0.08611411 0.197826 -0.17909141 -0.07670545
0001d0 86 0e 4e 3d c4 43 db bd f8 34 3c 3e 02 a6 53 be
       0.05030682 -0.10706285 0.18379581 -0.20668796
0001e0 de c0 8e bd 75 e3 21 be 0a d4 83 bb e1 44 27 bc
       -0.0697038 -0.15809424 -0.0040230798 -0.010209293
0001f0 71 17 d6 3d cb 10 50 be 98 3c 59 3e 5d 87 b2 bc
       0.1045369 -0.20318906 0.21214521 -0.021793062
000200 77 b1 2e 3e 8d a6 0a be 40 d3 5a 3e af 37 04 3d
       0.17059885 -0.13540097 0.21369648 0.032279667
000210 ed 21 3f be 74 56 90 bc ea 7b 84 bd 68 b7 93 bc
       -0.18665285 -0.017619349 -0.06468947 -0.01803179
000220 82 c8 18 3e 49 fa 80 bc ae 95 40 be 08 cf 33 be
       0.14920238 -0.015744345 -0.18807098 -0.17559445
000230 d7 49 d0 3d 39 6b bd 3b 63 eb ae bd f8 70 2e 3e
       0.10170334 0.005780604 -0.0854099 0.17035282
000240 93 e6 11 bd 20 41 0d be 67 fa 34 3e f8 5c 7e 3a
       -0.035620283 -0.13794374 0.17673646 0.00097031845
000250 76 7c 86 bd 50 ba 58 be 57 59 04 3e e2 6f 8e bd
       -0.06566708 -0.21164823 0.12924705 -0.06954934
000260 45 7a 34 3e b6 3b b6 bd 9f 75 ed bd cd 20 f3 bd
       0.17624767 -0.08898108 -0.115947 -0.11871491
000270 5d c1 26 bd 53 29 a1 bd 6b 13 22 3e c6 43 4b 3d
       -0.04071175 -0.0786921 0.1582772 0.04962518
000280 59 00 f4 3d 98 63 30 be a1 25 ad bd 3f 29 47 3e
       0.11914129 -0.17225492 -0.08454443 0.19449328
000290 4c fc f9 3c f6 f7 b6 3d 7a aa 03 3d 7c 9c ea bb
       0.030515812 0.089340135 0.032145 -0.0071597677
0002a0 af 14 05 3e 11 46 44 3d ff 7b 4c 3d 96 af 45 3e
       0.12996171 0.047918383 0.04992294 0.19305262
0002b0 d7 e6 12 be c5 e8 a8 bd 82 96 c2 3d 84 43 1f bd
       -0.14345871 -0.08247522 0.09501363 -0.038882747
0002c0 ed 33 1e be b9 37 be 3d 85 e8 e2 39 86 bb 12 3d
       -0.15449496 0.09287972 0.0004327932 0.035823368
0002d0 b7 4a 4d be 59 e5 1d be 02 a6 53 be bc fc 10 3e
       -0.20048033 -0.1541952 -0.20668796 0.1415891
0002e0 9a 79 dd bd 31 62 19 be 8d 08 c5 3d 06 ab 53 be
       -0.10814209 -0.14978863 0.096207716 -0.20670709
0002f0 17 e8 02 3e 5a 20 00 be 31 93 a7 3d 37 a8 98 bd
       0.12783848 -0.12512341 0.081823714 -0.074539594
000300 6a 30 e8 3d 9a 32 bb 3d d9 80 db 3d 67 d3 8d 3d
       0.11337359 0.09140511 0.10717935 0.069250874
000310 b2 32 2d be 46 2f b4 3d 9f 3b 61 bd 62 09 fd 3d
       -0.1691387 0.08798079 -0.0549885 0.12355305
000320 8c df 5a bd 30 9e 43 3c ca 2c 63 3c 4d e4 00 3e
       -0.053435847 0.01193957 0.013865659 0.1258709
000330 79 98 d2 bd 4b 83 87 3d 4c 98 26 3d ba 6d 0a be
       -0.10282988 0.06616839 0.040672585 -0.1351842
000340 e5 bb 52 3b 82 22 e2 3d 5f f6 29 3d 30 70 ec 3d
       0.003215545 0.11041738 0.041494723 0.115448356
000350 e8 df 00 3e 7a cd b4 bd ce 6a da bd 22 35 cd 3d
       0.12585413 -0.08828254 -0.106649026 0.100199

model/conv2d/Relu;model/conv2d/BiasAdd;model/conv2d/Conv2D;model/conv2d/BiasAdd/ReadVariableOp f4 [8]
000000 13 9d 38 3b ed d8 7e bd d9 8f 83 3c cb 52 a0 3b
       0.0028169795 -0.062218595 0.016059803 0.004892682
000010 0f b5 07 3b b0 74 1e 3c 96 ef dc 3c 5e c8 81 bd
       0.0020707285 0.009671375 0.026969712 -0.06337045
